app/src/main/assets/model.tflite (tflite, 12108 bytes, 5 tensors)

sequential_6/dense_19/MatMul;sequential_6/dense_19/Relu;sequential_6/dense_19/BiasAdd f4 [32]
0	0x3f87cd55	1.0609537
1	0x3edf2d47	0.4358923
2	0x3f8438f8	1.0329885
3	0xbfa3401b	-1.2753938
4	0xbe98194e	-0.29706806
5	0x3ea6e995	0.32600084
6	0xc008ba20	-2.1363602
7	0xbfe315e3	-1.7741054
8	0x3eec480c	0.46148717
9	0x3f0b3eae	0.54392517
10	0xbe8d7c71	-0.27634004
11	0x3eedf5dd	0.4647664
12	0xc00ccf70	-2.200161
13	0xbe8c0d97	-0.27354118
14	0xbd9bff9b	-0.07617112
15	0x3e97a823	0.29620466
16	0x3c468ba2	0.012118252
17	0xbe32d1ed	-0.17462893
18	0x3f26ba9a	0.6512848
19	0x3f399586	0.7249378
20	0x3f522cfb	0.82099885
21	0xc002f290	-2.0460548
22	0x3fa8b5cb	1.3180479
23	0xc00daa2d	-2.2135117
24	0x3fc17a27	1.5115403
25	0xbf68f735	-0.9100221
26	0x3db57bb0	0.08861482
27	0x3f8cf0e3	1.1011013
28	0xbecab200	-0.39588928
29	0x3f3a940b	0.72882146
30	0xbfbe6d97	-1.4877194
31	0x3fa37c43	1.2772297

sequential_6/batch_normalization_6/batchnorm/mul_1;sequential_6/batch_normalization_6/batchnorm/add_1;sequential_6/dense_19/MatMul;sequential_6/dense_19/Relu;sequential_6/dense_19/BiasAdd f4 [32, 64]
0	0xbc12d087	-0.00896085
1	0xbf58d13f	-0.84694284
2	0xbef5eca5	-0.48032108
3	0xbf3db07d	-0.74097425
4	0x3f10046e	0.5625676
5	0xbe724e8d	-0.23662777
6	0x3f6ef535	0.93342906
7	0xbf81e72c	-1.0148673
8	0xbd6a6d7a	-0.05723331
9	0x3fdaa443	1.7081379
10	0x3f949c8a	1.1610272
11	0x3f14958d	0.58040696
12	0x4016240e	2.3459506
13	0xbfb0fd04	-1.3827214
14	0xbdc7f68a	-0.097638205
15	0xbeee43a6	-0.46535987
16	0x3f826f52	1.0190222
17	0xc0052f0f	-2.0809972
18	0x3ef8ddea	0.48606807
19	0x3e5ce89b	0.21573107
20	0x3daa6638	0.08320278
21	0x3edd19b4	0.43183672
22	0xbf353d58	-0.7079673
23	0x3f1da5ac	0.6158092
24	0x3d7993db	0.06093202
25	0xc033bdff	-2.8084714
26	0x3f1bf2a4	0.60917115
27	0xbefdb8a0	-0.4955492
28	0x3da5127b	0.080601655
29	0xbe065770	-0.13119292
30	0xbf068af8	-0.525558
31	0xbf80f9e0	-1.0076256
32	0x3f9ec540	1.2403946
33	0xbeb38173	-0.350597
34	0xbee8b14e	-0.45447773
35	0xbbb81b14	-0.0056184623
36	0xbee532d9	-0.44765356
37	0xbfd153d8	-1.6353712
38	0x3eb13231	0.34608606
39	0x40039a39	2.056288
40	0xbf92aa72	-1.1458266
41	0xbfb8d967	-1.4441346
42	0xbf32f5e1	-0.6990643
43	0x3e8be03c	0.27319515
44	0x3f075574	0.52864766
45	0x3e421a3c	0.1895532
46	0xbf1e9500	-0.61946106
47	0xbf9a2478	-1.2042379
48	0xc07eac55	-3.9792683
49	0xbf064d18	-0.52461386
50	0x3f684ba8	0.9074044
51	0xbede19ee	-0.43379158
52	0x3eb3bf55	0.35106912
53	0xbf8382d8	-1.0274305
54	0xc020c36e	-2.511928
55	0xbfe2881f	-1.7697791
56	0x3ea85358	0.32876086
57	0x3f704c3d	0.9386633
58	0x3fd100d5	1.6328379
59	0xbf04f417	-0.5193495
60	0x3e836afd	0.25667563
61	0xc029ed20	-2.655098
62	0x3e21cea8	0.1580149
63	0xbf76efc2	-0.9645959
64	0xc02cc699	-2.6996214
65	0xbff8b2d8	-1.9429579
66	0xbecb4b2f	-0.39705798
67	0xbfa63239	-1.2984077
68	0x3fe873fa	1.8160393
69	0xbefe7d44	-0.49704945
70	0x3fd87a98	1.6912413
71	0xbf466eb3	-0.77512664
72	0x3edd7c82	0.43259054
73	0x3f9605b7	1.1720494
74	0x3fa8204d	1.3134857
75	0xbfa4983a	-1.2858956
76	0xbfebef5e	-1.8432424
77	0xbfae017d	-1.3594204
78	0xbe80faaf	-0.25191256
79	0xc0b2df59	-5.589764
80	0xbf7b8942	-0.98256314
81	0xbee1ff49	-0.4414008
82	0xbf0bb52a	-0.5457331
83	0x3f54b7e1	0.83093077
84	0xbf0c0b4c	-0.5470474
85	0xbf2ac1fa	-0.66702235
86	0x3f608b5a	0.87712634
87	0x3f6764b6	0.9038805
88	0x3f60e5fc	0.8785093
89	0x4099f7d3	4.811502
90	0xbfd82fc0	-1.6889572
91	0x3f7d4651	0.9893542
92	0x3f211ed2	0.62937653
93	0xbf1c32cd	-0.61015016
94	0x3f2a4f81	0.66527563
95	0xbbc86195	-0.0061151483
96	0xbfad494e	-1.3537996
97	0xbed88660	-0.4229002
98	0x3f045ddc	0.5170572
99	0x3eb11130	0.34583426
100	0xbf0a5737	-0.5403933
101	0xbc0912b0	-0.008366272
102	0x3e2aba97	0.16672741
103	0xbfa01574	-1.2506547
104	0xbeecb475	-0.46231428
105	0xbfcc63b7	-1.596793
106	0x3ec25bb4	0.3796059
107	0x3fdd42f0	1.7286053
108	0x3ed9af36	0.42516488
109	0x3ed7d3fc	0.4215392
110	0x3ee964cc	0.45584714
111	0x3f70c22c	0.9404628
112	0xbffd2a2d	-1.9778496
113	0x3f554bb4	0.8331864
114	0x3f1c452e	0.6104306
115	0xbe5a628f	-0.2132666
116	0xbf9a4904	-1.2053533
117	0x3db67968	0.08909875
118	0xbfdc79b4	-1.7224641
119	0xbf9b3eff	-1.21286
120	0x3f062166	0.5239471
121	0x3cbffdf8	0.023436531
122	0xbec77eb9	-0.3896387
123	0x3f280105	0.65626556
124	0x3f529f0c	0.82273936
125	0x3fa818ac	1.3132529
126	0x3d55ebaa	0.0522267
127	0xbf0793b6	-0.52959764
128	0xc041d888	-3.028841
129	0xbfc50c7e	-1.5394437
130	0x3ee80f88	0.4532435
131	0xbfaa3bb0	-1.3299465
132	0x3f0110bd	0.50416166
133	0x3ed1b916	0.40961522
134	0xbf95d301	-1.1705018
135	0xbc8d125a	-0.017220665
136	0x3f3d778e	0.7401055
137	0x3f88af5e	1.0678518
138	0xbf1ed354	-0.6204121
139	0x3f877123	1.0581402
140	0x400c8ed1	2.1962168
141	0xbdc27be5	-0.09496287
142	0x3f10480c	0.56359935
143	0xbf30baeb	-0.69035214
144	0xbe1d1a0c	-0.15341967
145	0xbf4dff02	-0.80467236
146	0x3f047a0f	0.51748747
147	0x3e42b89c	0.19015735
148	0xbf05a689	-0.5220724
149	0x3dee6fdd	0.1164243
150	0x3e5610b3	0.20904808
151	0x3ef801c9	0.48438862
152	0x3f94e47b	1.1632227
153	0xc053b7ca	-3.3080926
154	0x3eb69007	0.3565676
155	0x3da6cecf	0.08144914
156	0xbf243a5b	-0.64151543
157	0xbf7f7633	-0.9978973
158	0x3a834f4b	0.0010018138
159	0xc00ae2d3	-2.1700943
160	0xbfb69693	-1.4264702
161	0x3eb9c464	0.36282647
162	0xbf3f6101	-0.7475739
163	0xbedd2158	-0.43189502
164	0xbf44b4b1	-0.76838213
165	0xc046fd69	-3.109217
166	0xbf144ad8	-0.579267
167	0x3e29c7f7	0.16580187
168	0x3eaaa30b	0.33327517
169	0x3f25330a	0.64531004
170	0xbf63b920	-0.88954353
171	0x3f698053	0.9121143
172	0x3f850c7e	1.0394437
173	0xbf07d0ae	-0.53052795
174	0xbf84ede5	-1.03851
175	0xbf7d2e63	-0.98898906
176	0xc018fa39	-2.3902724
177	0xbf6a713b	-0.91579026
178	0xbdf11054	-0.117706925
179	0x3f78aa9c	0.9713533
180	0x3fc75c7d	1.55751
181	0x3f81d2da	1.0142472
182	0x3e6334b2	0.2218807
183	0xbff0f434	-1.8824525
184	0x3e956fd8	0.29186893
185	0xbe178122	-0.14795354
186	0xbd802f79	-0.06259055
187	0xbf4ff99a	-0.81240237
188	0xbea09358	-0.31362414
189	0xbf90ac5f	-1.1302603
190	0xbeaa35cf	-0.33244178
191	0xc01ff22e	-2.4991565
192	0x403ba77e	2.932098
193	0x3f3bc3ef	0.73345846
194	0xbfa6e736	-1.303931
195	0x3f7a137b	0.97685975
196	0xbcd70343	-0.026246672
197	0xbf8c0cc2	-1.0941393
198	0x40046ea9	2.0692542
199	0x3ed5b79d	0.41741648
200	0x3f708c07	0.93963665
201	0x3f406e70	0.75168514
202	0x3ebc28e9	0.36749962
203	0xbea0dcf5	-0.31418577
204	0x3fec8a6a	1.8479741
205	0x3f7d014e	0.98830116
206	0xbf3b65d1	-0.73202235
207	0x3f1a4866	0.6026672
208	0xbee6edf3	-0.45103416
209	0x3fb780ce	1.4336183
210	0xbf177768	-0.59166574
211	0x3f767ca8	0.9628396
212	0xbf283f54	-0.6572163
213	0x3f5a752c	0.8533504
214	0x3f5f2436	0.8716463
215	0x3efffd7e	0.49998087
216	0xbf6bf12f	-0.9216489
217	0xc0504d04	-3.2547007
218	0xbf235759	-0.63805157
219	0xbee94299	-0.45558622
220	0xbf37fa19	-0.71865994
221	0x3f1aead7	0.6051459
222	0x3f062b9c	0.5241029
223	0x3fb24129	1.3926135
224	0x3f0ea747	0.55723995
225	0xbeadaa5e	-0.33919042
226	0xbf2bceec	-0.6711261
227	0x3edd20b3	0.4318901
228	0xbd921da1	-0.071345575
229	0x40298a54	2.6490679
230	0xbf9ae6f3	-1.210173
231	0xc01f73bb	-2.4914386
232	0xbf7e01fc	-0.9922178
233	0xbf5008ff	-0.81263727
234	0x3f3120af	0.69190496
235	0xbf68ecfb	-0.90986603
236	0x3ebda9cb	0.37043604
237	0xbf1b524d	-0.60672456
238	0xbf2f9b88	-0.68596697
239	0xbd818458	-0.06324071
240	0xbf752f18	-0.95774984
241	0x3e77e33a	0.24207774
242	0x3f7272ed	0.9470661
243	0x3f90a852	1.1301367
244	0x3fca3219	1.5796539
245	0x3f4961e1	0.78664976
246	0x3fd05ee0	1.6278954
247	0x40258c4a	2.5866876
248	0xbeb13581	-0.34611133
249	0x3e40d19b	0.18829958
250	0xbf7f5f64	-0.9975493
251	0xbd69a2b2	-0.057039924
252	0x3f4c57a4	0.7982123
253	0x3fe1e983	1.7649387
254	0x3f4a1cb5	0.78950053
255	0x3f994422	1.1973917

sequential_6/batch_normalization_7/batchnorm/mul_1;sequential_6/batch_normalization_7/batchnorm/add_1;sequential_6/dense_20/MatMul;sequential_6/dense_20/BiasAdd f4 [1, 32]
0	0x3f94adbe	1.1615522
1	0xbec3243c	-0.38113582
2	0x3faa3af4	1.3299241
3	0x3f23ad52	0.6393634
4	0xbefd7d8f	-0.49509856
5	0x3f707914	0.9393475
6	0xbef9753c	-0.48722255
7	0xbf2e259b	-0.6802613
8	0xbf7630b0	-0.9616804
9	0xbfa2b71f	-1.2712134
10	0x3f1b2a92	0.6061183
11	0x3f6634dc	0.89924407
12	0xbf07b179	-0.53005177
13	0x3f4f882f	0.81067175
14	0xbf2c42e6	-0.6728958
15	0x3f8e3a3a	1.1111519
16	0x3f6ce8ff	0.92543024
17	0xbed69fc1	-0.41918758
18	0x3f986f43	1.1908954
19	0x3f3ce95c	0.7379358
20	0xbfbf72a5	-1.4956862
21	0xbf3e50dd	-0.7434214
22	0xbf5c3711	-0.86021525
23	0xbf1465c5	-0.5796779
24	0xbf2a8a82	-0.66617596
25	0x3f292bb4	0.6608231
26	0x3f5c27fb	0.85998505
27	0xbfb20d0a	-1.3910229
28	0x3f0c257d	0.547447
29	0xbf47c1b1	-0.78029925
30	0xbf0207a7	-0.50792927
31	0xbf8199bc	-1.0125041

sequential_6/dense_18/BiasAdd/ReadVariableOp f4 [64]
0	0xbde6a934	-0.11262742
1	0x3dbdd839	0.09269757
2	0xbc5b3426	-0.013379132
3	0xbe0703c7	-0.13185035
4	0x388239bd	6.209638e-05
5	0x3c761e4b	0.015021871
6	0x3c029132	0.007969188
7	0xbb85eac9	-0.0040868265
8	0xbd84167e	-0.064496025
9	0xbd54e9d3	-0.051980805
10	0xbdc25e7f	-0.0949068
11	0xbcf054d8	-0.029337332
12	0xbd8c2609	-0.06843192
13	0xbca49e34	-0.020094968
14	0xbcfaa024	-0.03059394
15	0xbdf78a0c	-0.12086877
16	0x3c867bbf	0.016416429
17	0xbde2d19e	-0.110751376
18	0xbdb78ebf	-0.089627735
19	0xbc02d8a7	-0.007986224
20	0xbdd7cb1b	-0.10536786
21	0x3d809207	0.062778525
22	0x3c88ebe4	0.016714044
23	0xbd3faf15	-0.04679783
24	0xbcb16e91	-0.021659167
25	0xbd9dbf11	-0.07702459
26	0xbcc5eda6	-0.024161171
27	0x3c875731	0.016521068
28	0xbc6e0392	-0.014527218
29	0x3c005a40	0.007834017
30	0xbd8a8e64	-0.0676544
31	0xbdb45bf0	-0.08806598
32	0x3b013648	0.0019716192
33	0xbc2f671a	-0.010705734
34	0x3da875ac	0.08225569
35	0xbd3e023e	-0.046388857
36	0xbd40d5e5	-0.047078986
37	0xbdcdc8d2	-0.10048069
38	0xbc7e5afa	-0.01552462
39	0xbde92fac	-0.11386046
40	0xbc0bba66	-0.008528328
41	0x3d30217c	0.043000683
42	0xbcbc426f	-0.022980897
43	0xbd2a0559	-0.041509006
44	0xbd3fe944	-0.04685332
45	0xbdab8e73	-0.083767794
46	0x3d8adb90	0.067801595
47	0xbde8b88b	-0.11363324
48	0xbdea642f	-0.1144489
49	0xbce84303	-0.028352266
50	0x3d1f53cb	0.03889827
51	0xbd244dc3	-0.04011322
52	0xbd91b51c	-0.07114622
53	0xbddedbee	-0.10881792
54	0xbcdae171	-0.026718827
55	0x3cd60c89	0.026129024
56	0xbbbebcef	-0.0058208625
57	0xbcd82e97	-0.026389403
58	0xbd6d5c24	-0.0579492
59	0xbc345991	-0.011007682
60	0xbd84bb5a	-0.06481047
61	0x3c792d89	0.01520861
62	0x3db7db8c	0.08977422
63	0x3c049e04	0.0080943145

sequential_6/dense_18/MatMul f4 [64, 4]
0	0xbe27a7d8	-0.16372621
1	0x3dc5ed02	0.09664346
2	0x3d4f95ee	0.050680093
3	0x3d719fc7	0.058990266
4	0xbe5e76c4	-0.21724993
5	0x3e8a7d4d	0.27048722
6	0xb8ef73b3	-0.00011417959
7	0x3d404249	0.046938214
8	0xbe0b4bb7	-0.13603102
9	0xbe872173	-0.26392707
10	0xbe919018	-0.28430247
11	0xbd187fd3	-0.037231278
12	0x3e5ac2f3	0.2136343
13	0xbde619c4	-0.11235383
14	0xbdda614c	-0.10663089
15	0x3dc34269	0.09534151
16	0xbdbe7303	-0.092992805
17	0x3c5edcef	0.013602479
18	0x3e027b17	0.12742268
19	0x3e1e9bc5	0.15489109
20	0x3e7a1d4c	0.24425238
21	0xbcf5631f	-0.029954491
22	0x3e4e9ec7	0.20177756
23	0xbdbba34d	-0.091620065
24	0x3b8d6dbd	0.0043160603
25	0xbdc5df90	-0.09661782
26	0x3cf1d7bd	0.029521817
27	0xb8ec1a14	-0.00011258214
28	0xbe9b70f3	-0.3035961
29	0x3e46c9c5	0.19412906
30	0x3e9a0fcc	0.30090177
31	0xbe2068e1	-0.15665008
32	0xbe82b032	-0.2552505
33	0xbe6703c7	-0.22560035
34	0xbe669055	-0.22515996
35	0xbe6cd878	-0.23129451
36	0xbe1f5f66	-0.15563735
37	0xbdc661c0	-0.09686613
38	0xbe650f5e	-0.22369143
39	0x3d9c7392	0.07639231
40	0xbe404637	-0.18776785
41	0xbe42b28f	-0.19013427
42	0xbe42e4a3	-0.1903253
43	0xbe045b23	-0.12925391
44	0x3e450a30	0.19242167
45	0xbd99aa03	-0.0750313
46	0x3e33b9a9	0.17551292
47	0x3b9fec33	0.004880452
48	0x3dea7d59	0.114496894
49	0x3e16cfab	0.14727657
50	0xbc9fcdb9	-0.019507276
51	0x3db18203	0.08667376
52	0xbbdb893a	-0.0066997083
53	0xbe16c04f	-0.14721797
54	0xbdbc5ac5	-0.091970004
55	0x3e295d71	0.16539551
56	0xbe7abd95	-0.24486382
57	0xbd33c20c	-0.04388623
58	0x3e0f0c1a	0.1396946
59	0xbdebb0eb	-0.11508354
60	0x3dc82d80	0.097743034
61	0xbe0b0d3b	-0.13579266
62	0xbda26a6d	-0.07930455
63	0x3d3a41c7	0.045472886
64	0x3e502d2b	0.2032973
65	0xbe873b15	-0.26412264
66	0xbe57a9d6	-0.21060881
67	0x3e312a82	0.17301372
68	0x3e6bfd8e	0.23045942
69	0xbb658c5b	-0.0035026285
70	0xbc410c6b	-0.011782746
71	0x3d77b075	0.060471017
72	0xbeaaa47c	-0.33328617
73	0xbdbe8520	-0.09302735
74	0x3e484bd3	0.19560175
75	0xbe4492c4	-0.19196612
76	0xbd979f92	-0.074034825
77	0x3ccf7e5b	0.025328806
78	0xbc52f38b	-0.012875448
79	0xbe56585b	-0.20932142
80	0x3dbab826	0.09117155
81	0x3eca7715	0.39543977
82	0x3e827d62	0.25486284
83	0x3e48badc	0.19602531
84	0x3e96873c	0.2940005
85	0xbe3ca439	-0.18422021
86	0x3e6eeaac	0.23331708
87	0xbdc43985	-0.095812835
88	0x3e9d7bc3	0.30758485
89	0xbd1ff2b5	-0.039049823
90	0xbcbeae05	-0.023276338
91	0xbe48bd50	-0.19603467
92	0x3dcc3365	0.0997074
93	0x3e992580	0.29911423
94	0x3e5ebe14	0.21752197
95	0x3b179ce8	0.0023134295
96	0xbe8c178a	-0.2736171
97	0x3dd198bb	0.10234209
98	0xbe84b99c	-0.2592286
99	0xbe8540d9	-0.26026037
100	0xbe2b8a87	-0.16752063
101	0x3d9990a9	0.07498295
102	0xbc3bc932	-0.011461543
103	0xbd2970eb	-0.041367453
104	0xbdddb4b5	-0.10825483
105	0x3db9002a	0.090332344
106	0xbe2e7fa4	-0.17040879
107	0x3d4103fe	0.047122948
108	0x3b0acc30	0.0021178834
109	0xbc68d660	-0.014211267
110	0xbce9d04f	-0.028541712
111	0xbe941e0d	-0.28929177
112	0x3e628462	0.22120813
113	0x3ca6cfef	0.020362822
114	0x3da56423	0.0807574
115	0xbe9feb87	-0.3123438
116	0x3e49f716	0.19723162
117	0xbdbfd034	-0.093658835
118	0xbe11a659	-0.14223613
119	0xbe8a4381	-0.27004626
120	0xbea8f7c2	-0.33001524
121	0xbe775ce5	-0.2415653
122	0x3dc4e843	0.09614613
123	0xbe50d428	-0.20393431
124	0x3e512194	0.20422965
125	0xbe8c23aa	-0.2737096
126	0x3c98482c	0.018589102
127	0x3df8a813	0.121414326
128	0xbd631938	-0.055443972
129	0xbdbb7cb3	-0.09154644
130	0xbe49696e	-0.19669124
131	0xbe4e59e9	-0.20151486
132	0x3e5ffc76	0.2187365
133	0xbe6ead66	-0.23308334
134	0xbe8225e2	-0.25419527
135	0x3e9bc2f6	0.3042218
136	0xbd6acc60	-0.057323813
137	0xbe280efc	-0.16411966
138	0x3dc6b389	0.09702212
139	0xbe56918a	-0.20953956
140	0xbd26cef6	-0.040724717
141	0xbea443e1	-0.32083037
142	0x3e5889ac	0.21146268
143	0xbdb91a27	-0.09038191
144	0xbe084826	-0.13308772
145	0xbe8bb006	-0.27282733
146	0xbdc12a4d	-0.09431896
147	0x3e6f51c6	0.23371038
148	0xbe10867c	-0.14113802
149	0x3e784e5b	0.2424864
150	0xbe024499	-0.1272148
151	0x3e15f88b	0.14645593
152	0xbddfe229	-0.109318085
153	0x3e7ce576	0.24696907
154	0xbe6f7b4c	-0.23386878
155	0xbdfca27b	-0.12335678
156	0x3e1ebc24	0.15501457
157	0x3e121faf	0.14269899
158	0x3db45099	0.08804435
159	0xbbfb9241	-0.007677347
160	0x3e830a9e	0.25594038
161	0xbd7969cd	-0.060891915
162	0xbe0e1628	-0.1387564
163	0xbe2a26d7	-0.16616379
164	0xbda232fd	-0.079198815
165	0x3e8f1648	0.27946687
166	0xbd12b6b6	-0.035818778
167	0x3e18e32c	0.14930409
168	0x3e9a91bb	0.3018931
169	0xbd9c4cc4	-0.076318294
170	0xbe52bd61	-0.20580055
171	0xbcc78f92	-0.024360452
172	0xbd9543fe	-0.07288359
173	0x3dac934c	0.08426532
174	0x3e80f554	0.2518717
175	0x3e333095	0.17499001
176	0xbe167e6c	-0.14696664
177	0xbe1fe61b	-0.15615122
178	0xbe8a8014	-0.2705084
179	0x3d917ee8	0.071042836
180	0x3e41bd09	0.18919767
181	0xba9ab580	-0.0011803359
182	0xbca3f3ba	-0.020013679
183	0xbe62a559	-0.22133388
184	0xbcffcf76	-0.031226855
185	0xbc9619f6	-0.018322926
186	0x3e4e8e8c	0.20171565
187	0xbe25134b	-0.16120641
188	0x3d9a9aa9	0.0754903
189	0x3e7f4c4a	0.24931446
190	0x3d263f6a	0.04058782
191	0xbe0be5c9	-0.13661875
192	0xbe2227a1	-0.1583543
193	0x3dc88371	0.097906955
194	0x3d04b41d	0.032398332
195	0x3dc425df	0.09577536
196	0x3e3325a0	0.17494822
197	0x3e56d5eb	0.2098004
198	0x3e2600be	0.1621122
199	0xbe172c66	-0.1476303
200	0xbcc9b6fa	-0.024623383
201	0xbe6c0568	-0.23048937
202	0xbcb630cb	-0.022240063
203	0xbe0ce7d0	-0.13760304
204	0xbde05649	-0.109539576
205	0x3cac942d	0.02106675
206	0xbe86b6d1	-0.26311353
207	0x3e276264	0.16346127
208	0x3e391675	0.18074973
209	0x3ea769b0	0.3269782
210	0xbc48326e	-0.012219055
211	0x3e07dfa1	0.13268901
212	0x3ebc95da	0.36833078
213	0x3d84f892	0.064927235
214	0xbc448b11	-0.011996047
215	0xbc65e96c	-0.014032703
216	0x3e3dcf18	0.18536031
217	0x3e88cacf	0.2671723
218	0xbe4cbef2	-0.19994715
219	0xbcb07e1e	-0.021544512
220	0xbd8d0425	-0.06885556
221	0x3d304b60	0.043040633
222	0x3c6ce2f1	0.014458404
223	0x3e972c54	0.29526007
224	0xbe83925b	-0.25697598
225	0xbe41e127	-0.18933545
226	0x3db54a8d	0.0885211
227	0xbdf6d584	-0.120524436
228	0x3e18b3dd	0.14912362
229	0x3ea9275f	0.3303785
230	0x3d775c4d	0.06039076
231	0x3e4a46ac	0.19753522
232	0x3d03fbe8	0.03222266
233	0x3e591c67	0.21202241
234	0x3db9fe22	0.09081675
235	0x3d32288d	0.043495703
236	0xbdc9ba08	-0.09849936
237	0x3ded2108	0.11578566
238	0x3e91f9b2	0.28510815
239	0xbd7e4908	-0.062081367
240	0x3e3595b8	0.17732894
241	0xbe010cdd	-0.12602563
242	0xbe00ab08	-0.12565243
243	0xbdf13241	-0.11777163
244	0x3d88ccfe	0.06679724
245	0x3e73e05a	0.23816052
246	0xbdf68207	-0.120365195
247	0xbd34772b	-0.04405896
248	0x3e5affe7	0.21386681
249	0x3b101303	0.0021983988
250	0xbe1d7f31	-0.15380551
251	0xbe95e7bf	-0.2927837
252	0xbe794f26	-0.24346599
253	0x3e91eb92	0.28500038
254	0xbdb822a8	-0.08990985
255	0xbdde58d4	-0.10856786
